assets/model/model.tflite (tflite, 735472 bytes, 14 tensors)

sequential/conv2d/BiasAdd/ReadVariableOp f4 [16]
0	0xbd668a16	-0.056284033
1	0xbd132fb9	-0.035934184
2	0xbd2f5ea9	-0.042814884
3	0x3e25efd7	0.16204773
4	0x3ebaf36d	0.36513844
5	0x3e6eaeae	0.23308823
6	0x3dcc3c04	0.099723846
7	0x3e31a931	0.17349698
8	0xbe18921b	-0.14899485
9	0xbe49c9b4	-0.1970585
10	0x3c8d5dcc	0.01725664
11	0x3e84ccf4	0.25937617
12	0xbcc03f0d	-0.023467565
13	0x3e38b950	0.18039441
14	0xbe11a4d1	-0.14223029
15	0xbded9141	-0.115999706

sequential/conv2d_1/BiasAdd/ReadVariableOp f4 [32]
0	0xbbe29f40	-0.0069159567
1	0x3d37b57a	0.044850804
2	0x3be8cb09	0.007104282
3	0xbc2629db	-0.010141815
4	0x3df59075	0.119904436
5	0xbddeed02	-0.108850494
6	0x3d84b301	0.06479455
7	0x3e138dcf	0.14409564
8	0x3e30c0fe	0.1726112
9	0xbe05d09d	-0.13067861
10	0x3d09eac7	0.033671167
11	0x3dbd1489	0.092324324
12	0xbd510529	-0.05103031
13	0x3e48ff9a	0.19628754
14	0xbe5d43ad	-0.21607848
15	0xbd900fa2	-0.07034232
16	0xbdddf3a4	-0.108374864
17	0x3e005e87	0.1253606
18	0x3c5d0929	0.0134909535
19	0xbe15f361	-0.14643623
20	0x3de01edd	0.10943387
21	0xbde694f8	-0.11258882
22	0x3e30e391	0.1727431
23	0x3de74f9c	0.11294481
24	0x3e193cd5	0.14964612
25	0x3cc87219	0.024468469
26	0x3dcf8397	0.10132521
27	0xbe04388a	-0.12912193
28	0x3e6f49c6	0.23367986
29	0x3e8febe4	0.28109658
30	0xbe05b228	-0.13056242
31	0x3befa3ec	0.007313242

sequential/conv2d_2/BiasAdd/ReadVariableOp f4 [32]
0	0xbd97290d	-0.07380877
1	0x3e85445c	0.26028717
2	0x3e197001	0.14984132
3	0x3e2f7527	0.17134534
4	0xbe0c9d96	-0.1373199
5	0x3ddfbced	0.109247066
6	0xbde31c8f	-0.110894315
7	0x3d8c9d48	0.068659365
8	0xbd9a8269	-0.07544405
9	0x3e1648b3	0.1467617
10	0x3c8f53da	0.017496038
11	0xbd4efcca	-0.050534047
12	0x3dd819f2	0.10551824
13	0x3e011a8d	0.12607785
14	0xbd22f8ef	-0.039788183
15	0xbe2bf4c5	-0.16792591
16	0x3db9533d	0.090490796
17	0xbe39450e	-0.18092749
18	0xbdab2a95	-0.08357731
19	0x3e048377	0.12940775
20	0x3deb58f1	0.114915736
21	0x3dbfb1d3	0.09360089
22	0x3d07f7af	0.033195194
23	0x3e4aaef1	0.19793297
24	0xbdb5416d	-0.088503696
25	0x3dd7b770	0.10533035
26	0x3e404607	0.18776713
27	0xbdf19d7e	-0.117976174
28	0xbe5c9670	-0.21541762
29	0xbe868b07	-0.26277944
30	0x3db159d1	0.08659709
31	0x3dae32a8	0.08505756

sequential/conv2d_3/BiasAdd/ReadVariableOp f4 [64]
0	0xbdfb9cb1	-0.12285746
1	0xbe2ecefd	-0.17071147
2	0x3df76f50	0.12081778
3	0x3d782b54	0.060588196
4	0x3e41c2d7	0.18921982
5	0x3e0a8540	0.13527393
6	0xbd742bee	-0.059612207
7	0xbdd1f85d	-0.1025245
8	0x3e657d6a	0.22411123
9	0xbd4b76c0	-0.049673796
10	0x3e0a998d	0.13535137
11	0x3d19da09	0.03756145
12	0x3bf900e8	0.007598985
13	0xbc11a6c5	-0.008889859
14	0xbda1e671	-0.07905281
15	0xbe2103a9	-0.15724052
16	0xbe1388c4	-0.1440764
17	0x3dd6d9eb	0.10490783
18	0xbdd0358b	-0.101664625
19	0xbea26d3d	-0.31723967
20	0xbd4fb5bb	-0.05071042
21	0xbd4949f6	-0.0491428
22	0x3cf6d61e	0.030131396
23	0x3d8ab783	0.06773283
24	0x3da5cfb6	0.08096258
25	0x3e81dc81	0.25363544
26	0xbe040cd7	-0.12895523
27	0x3e869091	0.2628217
28	0x3c7ea7fd	0.015542981
29	0xbb4079a9	-0.002936939
30	0x3e6795e5	0.22615774
31	0x3a8e0f38	0.0010838276
32	0xbea2ecf8	-0.31821418
33	0x3c9368ef	0.017994372
34	0xbdb99d20	-0.09063172
35	0xbd0ddd76	-0.03463503
36	0x3e19423f	0.14966677
37	0xbbdc9232	-0.006731295
38	0x3e614130	0.21997523
39	0xbbb81976	-0.0056182696
40	0xbde9e7c3	-0.11421158
41	0xbc3b5c75	-0.011435618
42	0x3e1409b7	0.14456831
43	0x3e20e2ed	0.15711565
44	0xbcac1cf5	-0.021009902
45	0x3e39841f	0.18116806
46	0xbd3c5df2	-0.04598803
47	0xbde46b30	-0.11153257
48	0x3dbcb3f2	0.09214009
49	0xbe125e0f	-0.14293693
50	0xbe8a4400	-0.27005005
51	0x3d5a8faa	0.053359665
52	0x3e343c5d	0.17601152
53	0xbdb30922	-0.08741976
54	0x3c8f9e53	0.01753155
55	0xbe302302	-0.17200854
56	0xbd95b1e4	-0.073093206
57	0x3dafca4f	0.08583509
58	0x3c813270	0.01577112
59	0xbd0f157a	-0.03493259
60	0xbdb6e5ec	-0.08930573
61	0xbdc279f4	-0.09495917
62	0xbdd84e81	-0.105618484
63	0xbe8cc1d9	-0.27491644

sequential/conv2d/Conv2D f4 [16, 3, 3, 3]
0	0xbe61d168	-0.22052538
1	0x3dd2e3ef	0.10297381
2	0x3dee2f47	0.11630111
3	0x3d6e4598	0.05817184
4	0x3b9c0cdd	0.0047622756
5	0xbe67e7b9	-0.22646989
6	0x3bf99770	0.0076169297
7	0xbde7a5ac	-0.11310896
8	0x3d57a62e	0.052648716
9	0x3d92cac0	0.07167578
10	0xbd6156a1	-0.055014256
11	0x3d5a8c7a	0.053356625
12	0x3e451d91	0.1924956
13	0x3d8c7d84	0.06859878
14	0xbe1d172d	-0.15340872
15	0x3d161622	0.0366422
16	0xbe1d5ebe	-0.15368173
17	0xbe7162b5	-0.2357281
18	0x3dcc93bd	0.09989116
19	0x3e04ab08	0.12955868
20	0xbde22363	-0.11041906
21	0xbe2bffe1	-0.16796829
22	0x3e8a949c	0.27066505
23	0x3d18c077	0.037292924
24	0xbe0aeb4c	-0.13566321
25	0x3e1b61e1	0.15174057
26	0xbe46cd02	-0.19414142
27	0xbd0e2bc5	-0.03470971
28	0x3d80e2ba	0.06293245
29	0x3e2235cb	0.15840833
30	0xbd5c45a7	-0.053777363
31	0xbdc16f88	-0.09445101
32	0x3e01546b	0.12629859
33	0x3e1ce469	0.15321507
34	0xbe0b7112	-0.13617352
35	0xbe3d20ea	-0.18469587
36	0xbe4b9b2f	-0.19883417
37	0x3d618cc5	0.05506589
38	0x3e6edd76	0.23326668
39	0x3e200b7f	0.15629385
40	0xbde3c4d5	-0.11121527
41	0xbb7b9dcf	-0.0038393622
42	0x3e27d58f	0.1639006
43	0xbe1908bf	-0.14944743
44	0xbda9aedb	-0.08285304
45	0x3d30f9d9	0.043207023
46	0x3e2334f5	0.1593817
47	0x3d7a475e	0.061103217
48	0xbcb1fabf	-0.02172601
49	0xbdc23725	-0.09483174
50	0xbbb356e3	-0.005473004
51	0x3df19e4a	0.11797769
52	0xbdd54683	-0.1041384
53	0x3d47d16c	0.048783705
54	0x3d8395a7	0.06425028
55	0xbe38c3e9	-0.18043484
56	0xbe53e19e	-0.20691535
57	0x3de4d3e0	0.111732244
58	0x3e2b46a0	0.1672616
59	0xbb11842f	-0.0022204032
60	0xbccc1691	-0.024913104
61	0xbdda358f	-0.10654747
62	0xbe9c363a	-0.30510122
63	0x3d746712	0.059668608
64	0x3df574a9	0.11985142
65	0x3e2529c4	0.16129214
66	0x3e385a24	0.18003136
67	0x3de0c39a	0.10974808
68	0x3ea62765	0.3245193
69	0x3d3cf017	0.046127405
70	0xbc96058d	-0.018313194
71	0x3df5996c	0.119921535
72	0xbd067e4d	-0.032835294
73	0x3e5e7c09	0.21727003
74	0xbdd798e4	-0.105272084
75	0x3d8c3e93	0.068478726
76	0xbe012a06	-0.12613687
77	0x3e967d7c	0.29392612
78	0xbe26ef5c	-0.16302246
79	0xbea52290	-0.32252932
80	0xbdc97830	-0.09837377
81	0xbc8fdc67	-0.01756115
82	0xbdc55721	-0.09635759
83	0x3e05b23d	0.13056274
84	0x3def2458	0.11676854
85	0x3e00a93e	0.12564561
86	0x3e2e8de4	0.17046314
87	0x3e599867	0.21249543
88	0x3d992be5	0.07479075
89	0x3e876828	0.26446652
90	0xbda706e0	-0.08155608
91	0x3e62a616	0.2213367
92	0x3e489553	0.19588213
93	0xbd8c9e6c	-0.06866154
94	0xbe582e11	-0.21111323
95	0xbe7c7bd3	-0.2465661
96	0xbe1fb1ec	-0.15595216
97	0xbd1bfb98	-0.038081735
98	0x3bb68f91	0.0055713137
99	0x3e454af1	0.19266869
100	0x3da08349	0.07837541
101	0xbd93a8ff	-0.07209968
102	0xbe560d24	-0.2090345
103	0xb930e722	-0.00016870772
104	0xbe91a8cd	-0.28449097
105	0xbdb85973	-0.09001436
106	0xbd7dbb2f	-0.06194609
107	0xbe4de1a2	-0.20105603
108	0xbe6ff8af	-0.23434709
109	0xbdbe20a3	-0.09283569
110	0xbe1cca8e	-0.15311643
111	0xbda7d5aa	-0.0819505
112	0xbd62979e	-0.055320375
113	0x3e5a8ab6	0.21341977
114	0xbe53e088	-0.2069112
115	0x3e2cb698	0.16866529
116	0x3e57359b	0.21016543
117	0x3d23b21a	0.039964773
118	0x3d9ecac7	0.077535205
119	0xbe4ab630	-0.19796062
120	0xbe5b4639	-0.21413507
121	0xbe2cca6d	-0.16874094
122	0xbd687fdc	-0.05676256
123	0xbe20410e	-0.15649816
124	0xbe24ade4	-0.16081959
125	0x3e0f71c0	0.14008236
126	0x3d29340b	0.041309398
127	0x3d6c366d	0.057669092
128	0x3e4ac746	0.1980258
129	0xbe238eb0	-0.159724
130	0x3e5a80da	0.21338215
131	0x3d85d53d	0.065348126
132	0x3d6fa443	0.05850626
133	0x3e493fea	0.19653288
134	0x3d0da472	0.034580655
135	0x3e55b855	0.20871098
136	0x3e8bcf1d	0.27306452
137	0x3d9d964c	0.076946825
138	0xbd6df34a	-0.058093347
139	0xbd1e715c	-0.038682327
140	0xbe1db342	-0.15400413
141	0xbe1aee7b	-0.15130036
142	0x3e660dd1	0.22466208
143	0xbc731c5f	-0.014838307
144	0xbdd40b22	-0.10353686
145	0x3e6c0f9c	0.2305283
146	0xbe56bdfe	-0.20970914
147	0x3d133895	0.035942633
148	0xbdef9012	-0.11697401
149	0xbe29d517	-0.16585194
150	0x3e4f27e0	0.20230055
151	0x3e19597f	0.14975546
152	0xbe87dbf1	-0.2653499
153	0xbcd24271	-0.025666447
154	0x3e8bd952	0.2731424
155	0x3d94c1dd	0.07263539
156	0xbe0de816	-0.13858065
157	0x3e16cedc	0.14727348
158	0xbde641c2	-0.11243011
159	0x3de0a1b1	0.1096834
160	0xbd855aa9	-0.06511433
161	0x3da6291c	0.0811331
162	0x3cbc2675	0.022967556
163	0xbd89804a	-0.06713922
164	0x3dccac26	0.09993772
165	0x3d9fbe2f	0.077999465
166	0x3e7eb6fa	0.24874488
167	0x3e999a79	0.30000666
168	0x3e1b8bee	0.15190098
169	0x3dfe901d	0.12429831
170	0x3dbabaa7	0.09117632
171	0xbdf26dd0	-0.11837351
172	0x3d51ef35	0.051253516
173	0x3ddc882a	0.10768159
174	0xbe1be797	-0.15225063
175	0x3e79918d	0.2437193
176	0x3e7942e0	0.24341917
177	0xbdc6e145	-0.097109355
178	0xbd415bd6	-0.047206722
179	0xbc63e241	-0.013908924
180	0xbd57d0fa	-0.05268953
181	0x3e4666c3	0.19375138
182	0x3e080623	0.13283591
183	0xbcb4da87	-0.022076858
184	0xbdb1a4be	-0.08674
185	0x3e17e55d	0.14833589
186	0xbdca2460	-0.09870219
187	0xbeaa49ff	-0.3325958
188	0xbe20fa27	-0.15720426
189	0x3e2445cc	0.1604225
190	0x3e36a2f0	0.17835593
191	0xbda84b5d	-0.082174994
192	0xbe381df0	-0.1798017
193	0x3cd28c31	0.025701614
194	0x3def3f8d	0.11682043
195	0x3e5ba894	0.21451026
196	0x3e6904aa	0.22755685
197	0x3e83f566	0.25773162
198	0xbcbc904b	-0.023018023
199	0x3b3a090e	0.0028386745
200	0x3d4cf1ae	0.05003517
201	0xbd604a60	-0.05475843
202	0xbe37395b	-0.17892973
203	0xbe02e096	-0.12780985
204	0x3ae32854	0.0017330744
205	0x3dba3fe2	0.09094216
206	0xbe4bfbdd	-0.19920297
207	0xbb5ee5b4	-0.0034011425
208	0x3d74ccef	0.059765752
209	0x3d2efab1	0.042719547
210	0x3c422b61	0.011851163
211	0xbd8db857	-0.06919926
212	0xbea23870	-0.31683683
213	0x3d060c66	0.032726668
214	0xbd9b67fd	-0.075881936
215	0xbd4eeeab	-0.05052058
216	0xbd93826f	-0.072026126
217	0xbe51f861	-0.20504905
218	0xbe20a593	-0.15688162
219	0x3d8b1793	0.06791606
220	0xbe3775ba	-0.17916003
221	0x3cde9f4e	0.027175572
222	0xbe0f906c	-0.14019936
223	0xbe305eae	-0.17223617
224	0x3e6a76c5	0.2289687
225	0x3d8186ee	0.06324564
226	0xbe6712ba	-0.22565737
227	0xbe3ff17d	-0.18744464
228	0xbe14ec44	-0.14543253
229	0xbe0f73de	-0.14009044
230	0x3e34cbe6	0.17655906
231	0xbce4492d	-0.027866924
232	0xbda56c26	-0.08077268
233	0x3d0ac439	0.03387854
234	0x3d9c1673	0.07621469
235	0xbe0d0d1a	-0.13774529
236	0xbdcdc7c0	-0.10047865
237	0xbdce2f2d	-0.10067592
238	0xbd16276e	-0.036658697
239	0x3e3c4f1b	0.18389551
240	0x3dbb788f	0.09153854
241	0x3e26b417	0.16279636
242	0x3e04a65f	0.1295409
243	0x3e14125e	0.14460132
244	0x3c51780d	0.01278497
245	0x3df0b96b	0.11754116
246	0xbdf5078b	-0.11964329
247	0xbe668c5c	-0.2251448
248	0xbe3d9122	-0.18512395
249	0xbdad66f4	-0.084669024
250	0xbd7e6653	-0.062109303
251	0x3e57d10a	0.21075836
252	0xbcb6899b	-0.022282412
253	0xbd9b1fdf	-0.07574438
254	0xbc66a8e4	-0.014078353
255	0x3ddd8f36	0.10818331

sequential/conv2d_1/Conv2D f4 [32, 3, 3, 16]
0	0x3d360dcf	0.044446763
1	0x3dd9d0bf	0.10635518
2	0xbba93d26	-0.00516476
3	0xbad1d78d	-0.0016009674
4	0xbcde37cd	-0.027126217
5	0x3e795468	0.24348605
6	0xbdba723d	-0.091038205
7	0x3d3ffb58	0.04687056
8	0xbdeacc0c	-0.114647
9	0x3e173ebf	0.1477003
10	0x3d05c6b8	0.032660216
11	0xbda1e7a4	-0.0790551
12	0xbdc27c04	-0.0949631
13	0xbd7804d4	-0.06055148
14	0x3dcc3417	0.09970873
15	0xbd286d41	-0.041119818
16	0xbe2b1e1c	-0.16710705
17	0x3cd9ada5	0.026572058
18	0xbdc4feef	-0.09618937
19	0xbdecc7a6	-0.115615174
20	0x3d3c6847	0.045997884
21	0x3d720a1b	0.05909167
22	0x3d9fcba5	0.07802514
23	0x3e111453	0.1416791
24	0x3d5f33df	0.054492828
25	0x3d042c4c	0.032268807
26	0x3c233403	0.009961131
27	0xbd473c4c	-0.048641488
28	0xbe0b411c	-0.13599056
29	0xbcc529ca	-0.024067778
30	0x3e2a9962	0.16660073
31	0x3b019fe4	0.001977914
32	0xbe0b3f3d	-0.13598342
33	0x3da0b055	0.07846133
34	0x3d81d04a	0.06338556
35	0xbb5ff08a	-0.0034170472
36	0xbe174f34	-0.14776307
37	0x3d6f098c	0.058358714
38	0xbd149653	-0.036276173
39	0x3db9891f	0.09059357
40	0x3d9e1c9c	0.077203006
41	0xbd4561be	-0.048188917
42	0x3db799ac	0.089648575
43	0xbd139387	-0.036029365
44	0xbe85223a	-0.26002675
45	0x3c8959b7	0.016766412
46	0x3e0b9590	0.13631272
47	0xbde33aa8	-0.11095172
48	0xbd5193c7	-0.051166322
49	0x3bfecebc	0.0077761095
50	0xbcb24528	-0.021761492
51	0xbe306ead	-0.1722972
52	0xbc9d2484	-0.019182451
53	0x3bf6e2c5	0.0075343573
54	0x3a417582	0.0007379876
55	0x3d51be4e	0.05120688
56	0xbd727f43	-0.059203397
57	0x3d85ea02	0.06538774
58	0x3d1cbb5f	0.03826463
59	0x3c88cc3b	0.016698947
60	0x3dda7710	0.106672406
61	0xbd87a24d	-0.06622753
62	0xbd876d83	-0.066126846
63	0xbd0d8d7e	-0.034558766
64	0xbdecd55d	-0.11564133
65	0x3da00781	0.07813931
66	0x3dce429f	0.10071301
67	0xbdd564a3	-0.104195856
68	0x3e25fa85	0.16208847
69	0xbdd00a35	-0.10158197
70	0xbd432a67	-0.04764786
71	0x3d6e5636	0.058187686
72	0x3d4abf9c	0.04949914
73	0x3e08c016	0.13354525
74	0x3a1ae7c9	0.00059091725
75	0xbcd3de38	-0.025862798
76	0xbe72f406	-0.237259
77	0x3c928163	0.017883962
78	0xbcecc412	-0.028902087
79	0x3d3b5e8b	0.04574446
80	0xbe11a6e2	-0.14223817
81	0x3d7b487c	0.061348423
82	0xbd60cbe3	-0.05488194
83	0xbdde6254	-0.10858598
84	0xbe5d4eb8	-0.2161206
85	0xbd993b0a	-0.07481964
86	0xbb91fa43	-0.0044548823
87	0x3e185bc4	0.14878756
88	0xbc2b51f3	-0.01045655
89	0xbbcd3a46	-0.0062630503
90	0x3d4d7373	0.05015893
91	0xbc06ba86	-0.008223182
92	0xbe6fe1ec	-0.23426026
93	0xbd9af736	-0.07566683
94	0x3dc10237	0.094242506
95	0xbdb343c3	-0.08753159
96	0xbd12a83d	-0.035804976
97	0x3db57882	0.08860876
98	0x3e12c6ed	0.14333697
99	0xbdf87d01	-0.121332176
100	0xbd7653d9	-0.060138557
101	0x3dec70e6	0.11544971
102	0xbe24d614	-0.1609729
103	0x3d942c8b	0.072350584
104	0xbe4af8d2	-0.1982148
105	0x3d192c88	0.037395984
106	0x3d655925	0.055993218
107	0x3d3e9298	0.04652652
108	0x3dd0874c	0.10182056
109	0xbde3fc30	-0.11132085
110	0x3d9951da	0.07486315
111	0x3cfa3b66	0.030545902
112	0xbd9fa598	-0.077952564
113	0xbcd6c2af	-0.02621588
114	0x3dcc8779	0.09986777
115	0xbe2f6317	-0.17127644
116	0xbe3f528f	-0.18683837
117	0x3da199c2	0.07890655
118	0xbe11240d	-0.14173909
119	0xbd987601	-0.074443825
120	0xbd4e591d	-0.050377954
121	0x3d7c47b0	0.061591804
122	0x3d9112ce	0.07083665
123	0xbc6cf8f3	-0.014463651
124	0xbe36f673	-0.1786745
125	0xbd94dbc4	-0.072684795
126	0x3d82d20b	0.06387719
127	0x3d7a68c4	0.06113507
128	0xbe3b71e9	-0.18305172
129	0xbd94ec4a	-0.07271631
130	0xbd9cf964	-0.07664755
131	0xbe0ba6b4	-0.13637811
132	0xbece2dfa	-0.40269452
133	0x3d8e002d	0.06933627
134	0xbb96b211	-0.004598864
135	0x3c27210a	0.010200748
136	0xbdcceffd	-0.10006712
137	0xbc90c762	-0.017673198
138	0x3d819f67	0.06329232
139	0xbd8c4041	-0.06848193
140	0xbe9c9b87	-0.30587408
141	0xbdd75f0a	-0.10516174
142	0x3bb84fbc	0.0056247395
143	0xbb05cea8	-0.0020417366
144	0xbedc0d6a	-0.42978984
145	0xbdcae0f1	-0.099061854
146	0xbdc5e4c9	-0.09662778
147	0x3db50404	0.088386565
148	0x3ddfda75	0.10930339
149	0xbe3e6d3a	-0.18596354
150	0xbd89187d	-0.06694124
151	0xbd5de08a	-0.054169215
152	0x3e183b2f	0.14866327
153	0xbe4a262c	-0.19741124
154	0x3db96fe9	0.09054548
155	0x3c663569	0.01405082
156	0xbdd58187	-0.10425096
157	0x3e1722c0	0.1475935
158	0x3e837d82	0.25681692
159	0xbd20b443	-0.03923441
160	0xbd86bde6	-0.06579189
161	0xbdea3064	-0.11435011
162	0xbd539aeb	-0.051661413
163	0x3e24cce5	0.16093786
164	0x3e3fdeec	0.18737382
165	0xbe83ffb8	-0.25781035
166	0x3e42b4c3	0.19014268
167	0xbd88a306	-0.06671719
168	0xbe0ecd97	-0.13945614
169	0xbe473f7f	-0.19457816
170	0xbb4f7d50	-0.0031660385
171	0x3e33e076	0.17566094
172	0x3d172c68	0.036907583
173	0x3e20798d	0.15671368
174	0x3dfe4858	0.12416142
175	0xbda04c3a	-0.07827039
176	0xbe8bddbb	-0.27317604
177	0x3d08b4fc	0.033375725
178	0xbd7b346b	-0.061329287
179	0x3e4e5b42	0.20152
180	0x3ddc2850	0.107498765
181	0x3d1f8deb	0.038953703
182	0x3e784b66	0.24247512
183	0x3d9b350f	0.075784795
184	0xbe6addb0	-0.2293613
185	0xbe32e9d2	-0.17472008
186	0x3dcc1307	0.09964567
187	0xbdd4f9e9	-0.10399229
188	0x3cbab017	0.022789044
189	0x3e1e3a04	0.15451819
190	0xbe02b12a	-0.12762895
191	0xbe8ce6f7	-0.27519962
192	0xbe98aecf	-0.29820868
193	0xbe094f9d	-0.13409276
194	0xbe25e980	-0.16202354
195	0x3defc2b8	0.117070615
196	0x3e95090f	0.29108474
197	0x3d9aad59	0.07552595
198	0xbd3e07d3	-0.04639418
199	0x3d1aa973	0.037759256
200	0x3e4db58b	0.20088784
201	0xbccb5d41	-0.02482474
202	0xbcea14e0	-0.028574407
203	0xbc218ddd	-0.009860483
204	0xbdd08be1	-0.1018293
205	0x3dc6af4e	0.097014055
206	0x3dfd316a	0.123629406
207	0xbd642f41	-0.055709127
208	0xbe59f27e	-0.2128391
209	0xbe32899f	-0.17435311
210	0x3db0250d	0.08600817
211	0x3e17e736	0.14834294
212	0x3ea0bfa9	0.31396225
213	0xbd32e24c	-0.043672845
214	0xbc4c1779	-0.012456768
215	0xbd964360	-0.073370695
216	0xbddbc080	-0.10730076
217	0xbea2d1d6	-0.31800717
218	0x3e03ecac	0.12883252
219	0x3b659a46	0.003503458
220	0x3de03183	0.109469436
221	0x3dde6946	0.10859923
222	0x3cb49622	0.022044245
223	0xbe5ff95c	-0.21872467
224	0xbdddc002	-0.10827638
225	0xbda003c2	-0.07813217
226	0xbd81126a	-0.0630234
227	0x3e02a636	0.12758717
228	0x3e371e4b	0.1788265
229	0x3d25114e	0.040299706
230	0x3d9da4cd	0.07697449
231	0x3e028a23	0.12748007
232	0xbe8505d2	-0.25981003
233	0xbdd25209	-0.10269553
234	0x3daff1fa	0.08591075
235	0x3d6a44ff	0.057194706
236	0x3cee75b2	0.029108856
237	0x3df1814e	0.11792241
238	0xbe2822a1	-0.1641946
239	0xbe095994	-0.13413078
240	0xbebc4f58	-0.36779284
241	0x3d88893d	0.06666801
242	0xbe48c6f8	-0.1960715
243	0xbd8692e8	-0.06570989
244	0x3ee638dc	0.44965255
245	0xbc848001	-0.016174318
246	0xbc9320b2	-0.017959926
247	0xbd9a66a4	-0.075391084
248	0x3e40b33a	0.1881837
249	0xbd904102	-0.07043649
250	0x3d15c17e	0.03656148
251	0xbd96de0e	-0.07366572
252	0x3dcd584c	0.10026607
253	0x3b8eb804	0.0043554325
254	0x3dc3b185	0.095553435
255	0xbc6c1603	-0.014409545

sequential/conv2d_2/Conv2D f4 [32, 3, 3, 32]
0	0xbd7c0fb3	-0.06153841
1	0x3e10a260	0.14124441
2	0x3e8cbd1d	0.27488032
3	0xbe30d4b2	-0.17268637
4	0xbd733a72	-0.05938191
5	0xbc5f2952	-0.013620691
6	0xbed0c760	-0.4077711
7	0xbdc461a0	-0.09588933
8	0x3daecab5	0.08534757
9	0x3c0c4289	0.008560785
10	0x3da577cd	0.08079491
11	0x3d977ee4	0.07397249
12	0xbd9a3695	-0.07529942
13	0x3de4d2f7	0.11173051
14	0x3e2f5721	0.17123081
15	0x3e8cca3a	0.27498037
16	0x3e7fa002	0.24963382
17	0xbf071ce8	-0.5277848
18	0xbd4249c7	-0.04743364
19	0x3ded84cf	0.11597597
20	0x3e49b82b	0.19699161
21	0xbd6e8117	-0.05822858
22	0xbda3d720	-0.08000016
23	0xbe14c565	-0.14528425
24	0xbe0f821c	-0.14014477
25	0xbd4b0a5e	-0.049570434
26	0xbe8f84d6	-0.28031033
27	0x3ddfb851	0.109238274
28	0x3e415a94	0.18882209
29	0xbd0e4cc3	-0.034741174
30	0x3e589b39	0.21152963
31	0x3c8facb4	0.017538406
32	0xbdb3c8f7	-0.087785654
33	0xbd8b81f3	-0.06811895
34	0x3e64582c	0.2229926
35	0xbe122547	-0.14272033
36	0xbe103303	-0.1408196
37	0xbd19e9f4	-0.03757663
38	0x3dd15381	0.10221005
39	0x3d3b0bf8	0.04566571
40	0x3e973dba	0.2953928
41	0x3cffc1ed	0.0312204
42	0x3e255887	0.16147052
43	0x3e8c744a	0.27432472
44	0xbd72e5b0	-0.05930108
45	0x3e0b8714	0.13625747
46	0x3cedf616	0.029048007
47	0x3edfc9b5	0.43708578
48	0x3db4a1cd	0.088199235
49	0xbc94a80e	-0.018146541
50	0x3e0c5014	0.13702422
51	0x3e7b8865	0.24563749
52	0x3e6f190f	0.23349403
53	0xbd2bcba1	-0.041942243
54	0xbcd77926	-0.026302885
55	0x3e9e73ab	0.30947623
56	0xbef5e0ab	-0.4802297
57	0x39720780	0.00023081712
58	0xbdc0afa9	-0.094085045
59	0x3e3d9389	0.18513311
60	0x3d87b007	0.066253714
61	0xbe49aa9f	-0.19693993
62	0x3e923d5e	0.28562444
63	0x3e15c831	0.14627148
64	0xbda3acb6	-0.07991926
65	0xbe10e2ed	-0.14149065
66	0xbd4f26f0	-0.050574243
67	0xbe169969	-0.14706959
68	0xbe8db734	-0.27678835
69	0x3cd537f3	0.026027655
70	0x3e408b2f	0.18803094
71	0x3dda63af	0.106635444
72	0x3e2796dd	0.16366144
73	0x3d77238c	0.060336635
74	0x3e1fe1f3	0.15613537
75	0x3e4c5445	0.19954021
76	0xbd31ca8f	-0.043406066
77	0xbbc383aa	-0.0059666233
78	0x3ddab942	0.106798664
79	0x3e8d42e9	0.2759011
80	0x3d6ea4de	0.0582627
81	0x3df0e1c7	0.117618136
82	0x3e62c8b6	0.22146878
83	0x3e949a2a	0.29023868
84	0x3d8164b4	0.06318036
85	0x3d727bfa	0.059200265
86	0xbe5b0fc3	-0.21392731
87	0x3ea77d1c	0.32712638
88	0xbdcb8aa6	-0.099385545
89	0xbc8147b7	-0.015781267
90	0xbc1bcb21	-0.009508879
91	0x3e60e7fa	0.21963492
92	0xbd19e7e6	-0.03757467
93	0xbdefef01	-0.11715508
94	0x3e8029cc	0.25031888
95	0xbd8ed51e	-0.06974243
96	0xbd086619	-0.033300493
97	0x3e6de5fe	0.23232266
98	0x3dff53d2	0.12467159
99	0x3e018a2e	0.12650368
100	0x3dd107fb	0.102066
101	0x3d361197	0.04445037
102	0xbd896937	-0.06709521
103	0xbe8941d1	-0.26808026
104	0xbd941785	-0.072310485
105	0xbec7dfca	-0.39037925
106	0x3d92651e	0.07148193
107	0xbe820767	-0.25396273
108	0xbe4af06c	-0.19818276
109	0x3eadf091	0.339726
110	0xbdbe404e	-0.09289609
111	0x3e0f2af3	0.13981228
112	0xbdc3405f	-0.09533762
113	0xbd39687d	-0.045265663
114	0xbd1f1178	-0.03883502
115	0xbcced1dc	-0.025246553
116	0x3c28ae19	0.010295414
117	0xbc986380	-0.018602133
118	0x3e3b41e4	0.18286854
119	0xbe89c63e	-0.2690906
120	0x3d3f97b7	0.046775546
121	0xbe3298ef	-0.17441152
122	0xbd679cba	-0.05654595
123	0xbdbeb303	-0.093114875
124	0x3d7ff4fc	0.062489495
125	0xbe1a8e46	-0.15093336
126	0xbdc76d01	-0.09737588
127	0x3c662f15	0.014049311
128	0xbd6c82fd	-0.057742108
129	0x3d996215	0.07489411
130	0xbc2e0e0d	-0.010623467
131	0xbcac9ff4	-0.021072365
132	0x3e2f7f68	0.17138445
133	0xbdf5d843	-0.12004139
134	0x3d0a597c	0.033776745
135	0x3e18a281	0.1490574
136	0x3e3195b7	0.17342268
137	0xbeb6432f	-0.35598132
138	0x3e4b91f2	0.19879892
139	0xbe0a97d8	-0.13534486
140	0x3dafcf78	0.085844934
141	0x3ea000af	0.31250522
142	0xbe32addf	-0.17449139
143	0x3e6e4482	0.23268321
144	0xbdfd6531	-0.12372816
145	0xbde0d7ab	-0.109786354
146	0xbdf30ff9	-0.11868281
147	0xbd0c78ca	-0.03429488
148	0x3cd08e25	0.025458405
149	0x3d36439c	0.04449807
150	0x3ea26da0	0.31724262
151	0xbe23e477	-0.16005121
152	0xbeb59ab8	-0.35469604
153	0xbd333474	-0.043751195
154	0xbde034a3	-0.1094754
155	0xbd19213b	-0.037385207
156	0xbd1b3064	-0.037887946
157	0x3db4a5e2	0.08820702
158	0x3c86ceef	0.016456096
159	0x3e133a72	0.14377764
160	0xbe0399a8	-0.12851584
161	0x3e2c9901	0.16855241
162	0xbdd7f43e	-0.105446324
163	0xbe57458d	-0.21022625
164	0xbdd38900	-0.10328865
165	0xbdf1ff62	-0.118162885
166	0x3e9dcb15	0.30819002
167	0x3e477d17	0.19481312
168	0x3d6ed94d	0.058312703
169	0x3c428a35	0.011873771
170	0x3e3a3cb1	0.18187214
171	0x3ec9f7f4	0.39446986
172	0x3d507302	0.05089093
173	0x3e09838f	0.13429092
174	0xbcad2fd8	-0.021140978
175	0x3dcca3d9	0.09992189
176	0xbe349c8f	-0.17637847
177	0x3e5ac7b7	0.21365248
178	0xbdca002a	-0.098633125
179	0xbd3f3650	-0.046682656
180	0xbcced327	-0.02524717
181	0x3d664716	0.056220137
182	0x3e3b0c79	0.18266477
183	0x3e61d0f2	0.22052363
184	0xbc9c6ad4	-0.019093908
185	0xbe17f284	-0.14838606
186	0x3db78881	0.08961583
187	0x3d9460d0	0.07245028
188	0x3df91f33	0.12164154
189	0xbcb00c11	-0.021490129
190	0x3e3716b0	0.17879748
191	0xbdae33db	-0.085059844
192	0xbd4b2288	-0.04959348
193	0x3e2d01ac	0.16895169
194	0x3d6de270	0.058077276
195	0x3dc4ea7f	0.09615039
196	0xbdc48ce2	-0.09597184
197	0x3dc8d151	0.09805549
198	0x3c2cf154	0.010555584
199	0xbe375d5e	-0.1790671
200	0x3b3ea98d	0.002909276
201	0xbe779bb6	-0.24180493
202	0xbeaac49f	-0.33353135
203	0xbe951dd1	-0.2912431
204	0x3d82dd8c	0.06389913
205	0xbd9b7a5e	-0.07591699
206	0x3ddf2e88	0.10897547
207	0xbe40bc3e	-0.18821809
208	0xbd59852e	-0.053105526
209	0xbda3be06	-0.079952285
210	0xbe2fd056	-0.17169318
211	0x38e728eb	0.0001102256
212	0xbe4830d9	-0.19549884
213	0xbe23c6bf	-0.15993784
214	0xbe54c30f	-0.20777534
215	0xbdd2a003	-0.10284426
216	0x3ccbb760	0.024867713
217	0xbba39e87	-0.004993263
218	0xbd55c7f0	-0.05219263
219	0xbcbdc2ae	-0.02316412
220	0xbe3145f1	-0.17311837
221	0xbe094a90	-0.1340735
222	0xbe57cb10	-0.21073556
223	0xbb16adf1	-0.002299186
224	0xbdb7875e	-0.08961366
225	0x3dc58bdf	0.09645819
226	0x3da79b5a	0.08183928
227	0xbd941803	-0.07231142
228	0x3e4ac587	0.19801913
229	0xbe0f7106	-0.14007959
230	0xbe09f6ba	-0.13473025
231	0xbcbdf642	-0.023188714
232	0xbd09303d	-0.03349327
233	0xbe93e904	-0.28888714
234	0xbe1f5899	-0.15561141
235	0xbe6bda0d	-0.23032399
236	0xbc2dc986	-0.010607129
237	0x3de5ebd2	0.1122662
238	0xbe0e9481	-0.13923837
239	0x3d069412	0.032856055
240	0xbd364ccb	-0.04450683
241	0x3d04d310	0.032427847
242	0xbe08ee75	-0.13372214
243	0xbe404d42	-0.18779472
244	0xbe26cdd2	-0.16289452
245	0xbe5d42e5	-0.2160755
246	0xbd96488f	-0.07338058
247	0xbe7407e4	-0.23831135
248	0xbe1eb6cf	-0.15499423
249	0x3907399c	0.00012896064
250	0xbdbf29cb	-0.09334143
251	0xbe19de7d	-0.15026279
252	0xbe0ce5d1	-0.13759543
253	0xbe591da8	-0.21202719
254	0xbe3105be	-0.17287347
255	0xbd9a9aad	-0.07549033

sequential/conv2d_3/Conv2D f4 [64, 3, 3, 32]
0	0xbe23af9b	-0.15984957
1	0xbd57d91b	-0.052697282
2	0xbe69b5c9	-0.22823252
3	0x3d798ff1	0.06092829
4	0xbdc0dcbb	-0.09417101
5	0xbdc33211	-0.09531034
6	0xbe399b89	-0.18125738
7	0xbe340789	-0.17581
8	0xbd92f200	-0.07175064
9	0xbd73f6aa	-0.05956141
10	0xbe2cd3af	-0.16877626
11	0x3dcee0ea	0.10101493
12	0xbdb03379	-0.08603568
13	0x3cf1eb12	0.029531036
14	0x3e185059	0.148744
15	0xbe0c83dd	-0.13722177
16	0x3cd4cd2c	0.02597674
17	0xbdb5e4a8	-0.08881503
18	0xbe0bd122	-0.13653997
19	0x3cc243ff	0.023714064
20	0xbb890ac9	-0.004182194
21	0xbe3910a4	-0.18072754
22	0xbe935ba8	-0.28780866
23	0xbd937eee	-0.07201944
24	0xbeb26e53	-0.34849796
25	0x3e0da9b4	0.13834268
26	0xbe3ba923	-0.1832624
27	0x3d71ff9a	0.05908165
28	0xbd8be217	-0.068302326
29	0xbd77310c	-0.06034951
30	0x3d953bce	0.072867975
31	0x3d9e106a	0.077179745
32	0xbc8f9649	-0.017527716
33	0xbe221dd2	-0.15831688
34	0xbe39445b	-0.18092482
35	0xbc589f75	-0.013221611
36	0x3c09eb77	0.008417956
37	0x3ca0301b	0.019554188
38	0xbe565f9f	-0.20934914
39	0x3dade16a	0.0849026
40	0xbe9568a6	-0.29181403
41	0x3d03c98e	0.03217464
42	0x3c2bcf57	0.010486445
43	0xbe4e1f16	-0.20129046
44	0xbc9dd4ed	-0.01926657
45	0xbdcf7048	-0.10128838
46	0xbd9c0e93	-0.07619967
47	0x3dd91472	0.10599603
48	0xbda89f26	-0.0823348
49	0xbe3fed96	-0.18742976
50	0xbba1e72a	-0.004940887
51	0xbdacb06a	-0.08432086
52	0xbe6600da	-0.22461262
53	0xbbfb2219	-0.007663977
54	0xbe590a78	-0.211954
55	0x3dee566f	0.1163758
56	0xbc9eb4cc	-0.01937332
57	0x3d57b75b	0.052665096
58	0xbdba11aa	-0.090854004
59	0xbe39080a	-0.18069473
60	0xbdff7978	-0.1247434
61	0x3c1c4c52	0.009539681
62	0xbe10a920	-0.14127016
63	0x3c26379b	0.010145093
64	0x3b847b9a	0.0040430548
65	0xbd770721	-0.060309533
66	0xbe20df01	-0.15710069
67	0x3e1e2064	0.15442044
68	0x3e4c2157	0.19934593
69	0xbe84f04b	-0.2596458
70	0xbe2a4cdf	-0.16630886
71	0xbc91c473	-0.01779387
72	0xbd96d366	-0.0736454
73	0xbe254ab6	-0.16141781
74	0xbd965c32	-0.073418036
75	0xbe5e5e0d	-0.21715565
76	0xbc3e3869	-0.011610129
77	0xbe202757	-0.15640007
78	0xbde95588	-0.11393267
79	0x3deae197	0.11468809
80	0xbe03228d	-0.12806149
81	0x3d39aa35	0.045328338
82	0xbbbe2734	-0.005803013
83	0x3da26b93	0.079306744
84	0x3e188e72	0.14898089
85	0x3e2759b0	0.16342807
86	0x3d3163e0	0.04330814
87	0xbded7a32	-0.115955725
88	0xbddaeb9e	-0.10689472
89	0x3daf6b95	0.085654415
90	0xbe7fee6f	-0.24993299
91	0x3da9bce3	0.082879804
92	0x3d8b8ea4	0.06814316
93	0x3cad47af	0.021152345
94	0x3da01654	0.07816759
95	0xbdcfe474	-0.10150996
96	0x3d898237	0.0671429
97	0x3cf4899c	0.029850774
98	0xbb032eca	-0.0020016902
99	0x3e145591	0.14485766
100	0xbd2ea9c6	-0.042642377
101	0x3e351939	0.17685403
102	0x3e57fd88	0.21092808
103	0x3ce5fe04	0.028075226
104	0xbd14a793	-0.036292624
105	0x3db5a3b5	0.08869115
106	0xbc95beee	-0.018279519
107	0x3e587c85	0.2114125
108	0x3dd97837	0.10618632
109	0x3ce12e1b	0.027487805
110	0x3e16f7b6	0.14742932
111	0xbd8525eb	-0.06501373
112	0x3d1581d6	0.036500774
113	0xbe0c9134	-0.13727266
114	0xbe832ada	-0.2561863
115	0x3d101080	0.035171986
116	0xbcadce1f	-0.02121645
117	0x3d5b68e0	0.053566813
118	0xbe449a32	-0.19199446
119	0x3e30dee7	0.1727253
120	0x3d3cdda6	0.046109818
121	0x3dbecc11	0.09316266
122	0xbe4bc98d	-0.19901104
123	0x3df1c17d	0.11804483
124	0x3d94150a	0.072305754
125	0xbe047547	-0.12935363
126	0x3e10152c	0.14070576
127	0x3c6e5de0	0.014548749
128	0x3e15f089	0.14642538
129	0x3d428527	0.047490265
130	0xbdf8ffa1	-0.12158132
131	0x3e1b7cb1	0.15184285
132	0xbc669520	-0.01407364
133	0x3cf94e56	0.030432861
134	0xbcf0bdfa	-0.029387463
135	0x3cde6558	0.027147934
136	0xbc0adea6	-0.008475935
137	0x3d7f77de	0.062370174
138	0x3d573a23	0.052545678
139	0x3d4774d1	0.04869539
140	0x3e3a564b	0.1819698
141	0x3d3367af	0.043800052
142	0xbcc47432	-0.023981187
143	0x3ea4dcef	0.3219981
144	0x3d8abd02	0.06774332
145	0xbd78ca68	-0.060739905
146	0x3da8d725	0.082441606
147	0xbd8140ee	-0.063112125
148	0xbe3fd9e6	-0.18735465
149	0xbca6949b	-0.020334532
150	0x3d64b6e9	0.0558385
151	0x3e1e24b9	0.15443696
152	0xbbd6e96d	-0.0065585882
153	0x3d9cc2d2	0.076543465
154	0xbcefe879	-0.029285656
155	0xbe33bb72	-0.17551973
156	0x3d354747	0.04425743
157	0xbd95c0c0	-0.07312155
158	0xbe15b88b	-0.14621179
159	0x3d96b4d0	0.07358706
160	0x3d9e62cb	0.07733687
161	0x3e030077	0.12793146
162	0xbdcaaaa7	-0.098958306
163	0x3bbf3b4d	0.0058359266
164	0xbdedca03	-0.11610796
165	0x3d17c253	0.037050556
166	0xbd8dc120	-0.06921601
167	0x3bff968c	0.007799929
168	0xbdda5a25	-0.10661725
169	0xbda36054	-0.079773575
170	0xbdd6b81f	-0.10484337
171	0xbd95d010	-0.073150754
172	0x3d5303a3	0.05151714
173	0xbe3403e1	-0.17579605
174	0xbd0eaf90	-0.0348354
175	0x3e36e3eb	0.17860381
176	0xbcf40a39	-0.02979003
177	0xbe48825b	-0.19580977
178	0xbde94280	-0.11389637
179	0xbd4d746d	-0.05015986
180	0x3df19bf2	0.11797322
181	0x3e440537	0.19142614
182	0x3dc08cda	0.09401865
183	0xbdbf0d23	-0.093286775
184	0xbd4b7e3c	-0.049680933
185	0xbd0aab95	-0.03385504
186	0xbe6b749d	-0.22993703
187	0xbe80bf24	-0.2514583
188	0xbda477f5	-0.080306925
189	0x3e36b02b	0.1784064
190	0x3e5dd160	0.21661901
191	0xbde31d78	-0.11089605
192	0xbd4ec2d6	-0.05047878
193	0x3d1e5a65	0.038660426
194	0xbdacdab9	-0.084401555
195	0x3c305ce9	0.010764339
196	0x3e750615	0.23928101
197	0xbce88e56	-0.028388184
198	0x3e434151	0.19067885
199	0x3cacb06f	0.021080224
200	0x3c42e480	0.011895299
201	0x3de254d1	0.11051334
202	0x3db1272d	0.0865005
203	0x3c92a892	0.017902646
204	0xbc5db66b	-0.013532261
205	0xbcd00b9f	-0.025396166
206	0x3d816633	0.06318321
207	0x3b776a65	0.0037752625
208	0xbd1f4a95	-0.038889486
209	0xbe2c26f6	-0.16811737
210	0xbd944348	-0.072393954
211	0xbdaf17ad	-0.08549438
212	0xbe22ae1a	-0.15886727
213	0xbe5cbdce	-0.2155678
214	0xbe0a5c16	-0.1351169
215	0xbe2c2ee2	-0.1681476
216	0x3e8cb534	0.27481997
217	0xbd4a80a4	-0.049439088
218	0xbe709aa9	-0.23496498
219	0x3e260b23	0.16215186
220	0x3e4504e4	0.19240147
221	0x3c8db534	0.017298318
222	0xbdf97517	-0.12180536
223	0x3cbb865c	0.022891216
224	0x3dd06b08	0.101766646
225	0x3e237b9e	0.15965125
226	0xbdd52f9b	-0.10409471
227	0x3db79d78	0.08965582
228	0x3d16ab48	0.03678444
229	0xbddd4b00	-0.10805321
230	0xbdfd2c19	-0.123619266
231	0xbdc0b8f3	-0.09410276
232	0xbd790c59	-0.06080279
233	0xbd1900b8	-0.0373542
234	0x3e2d75bf	0.16939448
235	0xbd7613d1	-0.060077492
236	0x3e21d119	0.1580242
237	0xbe13ba98	-0.14426649
238	0xbda2d236	-0.07950251
239	0x3e4b81c4	0.1987372
240	0xbde5899e	-0.11207889
241	0xbe7ec29e	-0.24878928
242	0x3e1c6889	0.15274252
243	0xbdc3e4dd	-0.095651366
244	0xbda39a40	-0.07988405
245	0xbd998153	-0.0749537
246	0x3e715be2	0.23570207
247	0xbdef04ee	-0.11670862
248	0x3d253078	0.040329427
249	0xbd7c11c0	-0.061540365
250	0xbdfc3038	-0.123138845
251	0xbeb0dcc8	-0.34543443
252	0x3c5d9c41	0.013526023
253	0x3db61765	0.08891181
254	0xbe1461d9	-0.14490451
255	0xbbb24d4e	-0.0054413443

sequential/dense/BiasAdd/ReadVariableOp f4 [64]
0	0x3e64df3d	0.22350784
1	0xbbccba54	-0.006247798
2	0x3e0b6b92	0.13615254
3	0xbcade78f	-0.02122858
4	0xbceb6910	-0.028736621
5	0xbd0fa7b4	-0.035072044
6	0xbdad096b	-0.08449062
7	0xbe8779d1	-0.26460126
8	0xbcac627b	-0.021043053
9	0xbc040dbc	-0.008059915
10	0xbbd6c831	-0.0065546264
11	0x3dda8d37	0.10671466
12	0xbec3bba7	-0.38229105
13	0xbd3bb472	-0.045826383
14	0xbcf8c454	-0.030367054
15	0xbc508ca0	-0.01272884
16	0xbc53bf22	-0.012923988
17	0xbd17a45c	-0.03702198
18	0xbc1302d5	-0.008972843
19	0x3e8077bd	0.25091353
20	0xbd681f94	-0.05667074
21	0x3e1f122f	0.1553428
22	0x3e59e5ba	0.2127904
23	0xbd06c4f6	-0.03290268
24	0x3cbbd56f	0.022928922
25	0xbce8fa63	-0.028439706
26	0xbd09e11e	-0.033661954
27	0x3d9facc3	0.077966236
28	0xbbdfb0fd	-0.0068265186
29	0x3c506342	0.012718977
30	0xbe0f992e	-0.14023277
31	0xbbaf8c1a	-0.0053572776
32	0xbbf9fa54	-0.0076287184
33	0xbbde52f7	-0.0067847925
34	0xbb8ee1d8	-0.0043604188
35	0xbe7c6859	-0.2464918
36	0x3e17cce0	0.14824247
37	0xbdc2624d	-0.09491406
38	0x3e540657	0.20705543
39	0x3d035eb9	0.032072756
40	0xbbfbb1a7	-0.00768109
41	0xbd887f96	-0.0666496
42	0x3d519fd4	0.051177815
43	0xbd175a36	-0.036951266
44	0xbc8f18ee	-0.017467942
45	0xbe3b8953	-0.18314104
46	0x3ea94cd3	0.33066425
47	0xbea67c47	-0.3251669
48	0xbe608dd7	-0.21929108
49	0xbbdf6986	-0.0068179993
50	0xbc23c1e6	-0.009994959
51	0xbd514b6c	-0.05109732
52	0xbcac928d	-0.021065975
53	0xbbf9de0d	-0.0076253475
54	0xbd14a827	-0.036293175
55	0xbbcfdc00	-0.0063433647
56	0xbbc7064e	-0.0060737496
57	0xbe9aa756	-0.30205792
58	0x3e01e4dc	0.12684959
59	0x3dab168c	0.0835391
60	0xbd0873c9	-0.033313546
61	0x3b76bcd0	0.0037649162
62	0x3d03a087	0.032135513
63	0x3e980969	0.2969468

sequential/dense_2/BiasAdd/ReadVariableOp f4 [7]
0	0xbd86b77f	-0.06577968
1	0x3e339692	0.17537907
2	0x3ea5987a	0.32342893
3	0x3d9f9f9f	0.07794117
4	0xbceb2fd8	-0.028709337
5	0xbe543bc3	-0.20725922
6	0xbe9f574d	-0.31121293

sequential/dense_1/BiasAdd/ReadVariableOp f4 [32]
0	0xbe388667	-0.1802002
1	0x3e6d42f7	0.23170076
2	0xbd99333d	-0.07480476
3	0xbd9aa2e6	-0.07550602
4	0xbd1dca9c	-0.0385233
5	0x3ea5155c	0.32242858
6	0xbbebaff4	-0.007192606
7	0xbde15e33	-0.11004295
8	0xbddcbaf1	-0.10777844
9	0x3e2921d2	0.16516808
10	0xbceb7cc2	-0.028746013
11	0x3c9ab53d	0.01888525
12	0xbcd17120	-0.025566638
13	0xbe9b3bda	-0.303191
14	0x3de7d7ca	0.11320455
15	0xbe372582	-0.17885402
16	0xbd186e56	-0.0372146
17	0x3e6c4402	0.23072818
18	0x3ea69031	0.32531884
19	0xbc0b130e	-0.00848843
20	0xbdda6a45	-0.106648006
21	0x3d4b2e83	0.049604904
22	0xbd9ec26e	-0.07751928
23	0x3dbf9ee1	0.093564756
24	0x3a4b452a	0.00077541417
25	0xbd574e85	-0.052565116
26	0xbe4bb503	-0.19893269
27	0x3e7a9a99	0.24473037
28	0x3edc09cd	0.42976227
29	0x3d111b3e	0.03542637
30	0xbeab33d4	-0.3343798
31	0x3dbc9e3f	0.092098705

sequential/dense/MatMul f4 [64, 2304]
0	0xbc20dcda	-0.00981828
1	0xbcd8ce78	-0.02646564
2	0x3df99545	0.12186674
3	0x3dc04d77	0.09389775
4	0x3df26af0	0.11836803
5	0x3d5110a3	0.051041257
6	0x3d0a41d2	0.033754177
7	0xbdcf3baf	-0.101188056
8	0xbdf6a41a	-0.12043019
9	0xbe060379	-0.13087262
10	0x3c07863e	0.008271752
11	0x3dcdf4be	0.100564465
12	0xbccf87c2	-0.025333289
13	0xbb0a87d0	-0.002113808
14	0xbdd3093b	-0.10304495
15	0x3d4216d4	0.04738505
16	0xbd5655fc	-0.052328095
17	0x3d73ee28	0.059553295
18	0xbe3e4e59	-0.18584575
19	0x3d36ad99	0.04459915
20	0xbd6200d9	-0.05517659
21	0x3de74646	0.112927005
22	0xbe05027b	-0.12989227
23	0x3dad02f9	0.084478326
24	0xbe02492e	-0.12723228
25	0x3d91b648	0.071148455
26	0x3dbb2137	0.091371946
27	0xbe2cf5d5	-0.16890652
28	0x3dc401fe	0.095706925
29	0x3c2e4977	0.010637633
30	0x3e4c9925	0.19980295
31	0xbe0c9c9d	-0.13731618
32	0xbdd386d2	-0.10328449
33	0x3d909bd6	0.07060973
34	0xbdc163bf	-0.09442853
35	0xbda542ca	-0.0806938
36	0x3d8694d2	0.06571354
37	0xbd63b76b	-0.055594843
38	0x3e18eff5	0.14935286
39	0x3decb6dc	0.11558315
40	0x3bd61f1c	0.0065344702
41	0xbc557933	-0.013029384
42	0x3d34493c	0.044015154
43	0xbd7b7bd4	-0.06139739
44	0xbdde9466	-0.108681485
45	0x3d89d5a3	0.06730201
46	0x3d4dabbb	0.050212603
47	0xbd6b0de0	-0.05738628
48	0x3c53520c	0.0128979795
49	0xbe6e9933	-0.23300628
50	0xbd27bcec	-0.040951654
51	0x3de7456d	0.11292539
52	0xbc9bbe8e	-0.019011762
53	0xbd337a89	-0.04381803
54	0xbe87fd7a	-0.26560575
55	0xbcb7f272	-0.022454474
56	0xbde9a9e3	-0.114093564
57	0xbc4022d3	-0.011727053
58	0xbda60824	-0.081070215
59	0xbe26d926	-0.16293773
60	0xbe07ebfb	-0.13273613
61	0xbda3f373	-0.08005419
62	0x3ded4dda	0.11587115
63	0xbdf7bf4a	-0.12097032
64	0x3d68196b	0.056664865
65	0xbe3eb195	-0.1862243
66	0xbe0e1bae	-0.13877746
67	0x3e58e329	0.21180405
68	0x3e097386	0.13422975
69	0xbcc71871	-0.024303647
70	0x3d9ad7e9	0.07560713
71	0xbe4ffcc5	-0.20311268
72	0x3d7623b7	0.060092654
73	0xbec33bee	-0.3813166
74	0x3c8c8486	0.017153036
75	0x3dcf078f	0.101088636
76	0x3e09755c	0.13423675
77	0xbd326244	-0.043550745
78	0x3c6d862f	0.014497324
79	0xbd8746ed	-0.06605325
80	0xbe49b414	-0.196976
81	0xbd1ff33d	-0.03905033
82	0xbea3320d	-0.31874123
83	0x3dd295a3	0.10282447
84	0xbde952c6	-0.11392741
85	0x3d9e2f12	0.07723822
86	0xbdd7f921	-0.105455644
87	0x3e30d468	0.17268527
88	0xbc98382d	-0.018581474
89	0x3d904165	0.07043723
90	0x3b8700b7	0.0041199583
91	0xbe4fa8ae	-0.2027919
92	0x3c76bdf1	0.015059934
93	0xbd84bb3f	-0.06481027
94	0x3ca3f3c0	0.02001369
95	0xbe772d63	-0.24138407
96	0xbe336213	-0.17517881
97	0xbdb95212	-0.09048857
98	0x3dd19826	0.10234098
99	0xbc390509	-0.011292704
100	0x3ca5bc9c	0.020231538
101	0xbd297e57	-0.041380253
102	0xbd8efbbd	-0.06981609
103	0x3c930dcc	0.017950915
104	0x3c0c9856	0.008581242
105	0x3c9e5eb1	0.019332262
106	0xbdbff49e	-0.09372829
107	0xbe138d62	-0.14409402
108	0xbd9d46cd	-0.0767952
109	0x3d9ac010	0.07556164
110	0xbd71d820	-0.059044003
111	0xbc02cc29	-0.007983246
112	0xbd288c68	-0.041149527
113	0xbe406942	-0.18790153
114	0xbe4f7e9f	-0.20263146
115	0x3da4364d	0.080181696
116	0xbd44d6a5	-0.048056263
117	0x3e1fd228	0.15607512
118	0xbdc11a43	-0.09428837
119	0xbdce5455	-0.10074679
120	0xbda04b6d	-0.07826886
121	0x3cdcf7cd	0.02697363
122	0xbb66826f	-0.003517296
123	0xbd8581ec	-0.06518921
124	0xbd9cc69a	-0.07655068
125	0x3cdbdc35	0.026838401
126	0xbe13232c	-0.14368886
127	0xbe94c070	-0.29053068
128	0xbda04969	-0.07826502
129	0xbde4ac1d	-0.111656405
130	0xbd736b91	-0.059428755
131	0xbdf2598b	-0.11833485
132	0x3d798b24	0.06092371
133	0xbcb53f19	-0.022124814
134	0x3d3e6236	0.04648038
135	0xbe4aef8f	-0.19817947
136	0x3dbf1684	0.093304664
137	0xbd714620	-0.058904767
138	0xba8a70d1	-0.0010562186
139	0xbc2b6505	-0.010461097
140	0x398fe13f	0.00027442907
141	0xbc823042	-0.015892152
142	0x3d8a8f3b	0.067656
143	0xbd8fa6a9	-0.0701421
144	0x3e827027	0.2547619
145	0xbd1897c5	-0.037254114
146	0x3bbc6545	0.005749377
147	0x3d940905	0.07228283
148	0xbd0163b5	-0.03158923
149	0xbbbd661a	-0.0057799937
150	0xbd2405ce	-0.0400446
151	0x3d8396ca	0.06425245
152	0xbcfe258c	-0.031023763
153	0x3e0192a1	0.1265359
154	0x3d8a333c	0.067480534
155	0xbe2ae473	-0.16688709
156	0xbd9b929a	-0.075963214
157	0x3bc55854	0.0060224924
158	0xbdc7645c	-0.09735939
159	0x3d5a4ee7	0.053297903
160	0x3cdb5dda	0.02677815
161	0xbe13a3c5	-0.14417942
162	0xbe1cc994	-0.15311271
163	0x3c2c0d1a	0.0105011705
164	0x3e2aeb4f	0.16691326
165	0x3d0a5791	0.033774916
166	0x3c89ec12	0.0168362
167	0x3d06c97f	0.032907005
168	0xbc9900b3	-0.018677091
169	0x3cd40a59	0.02588384
170	0x3cdbcec2	0.026831988
171	0x3db252f0	0.08707225
172	0xbe3c4d6b	-0.18388908
173	0xbcf594bd	-0.02997815
174	0xbd57f5c5	-0.05272462
175	0x3de0daaa	0.10979207
176	0x3d726d91	0.059186522
177	0xbe014d77	-0.12627207
178	0xbe353623	-0.17696433
179	0xbdc31c4d	-0.09526882
180	0x3db5dccc	0.08880004
181	0x3d9d4a16	0.076801464
182	0xbe04df25	-0.12975748
183	0x3c208228	0.009796657
184	0xbd24f109	-0.04026893
185	0x3d3333f3	0.043750715
186	0xbcf64cae	-0.03006586
187	0x3d3b895c	0.045785293
188	0x3d9dd50f	0.07706653
189	0xbc682d09	-0.0141708935
190	0xbbe9506f	-0.007120184
191	0x3d3a1038	0.045425624
192	0xbd435a69	-0.047693644
193	0x3db89daa	0.09014447
194	0xbde70784	-0.1128073
195	0x3d9c6f9f	0.076384775
196	0xbda46684	-0.08027366
197	0x3d76ef6e	0.06028693
198	0x3df53a24	0.1197398
199	0xbe2a7b86	-0.16648683
200	0x3ca69326	0.020333838
201	0xbe06ad7a	-0.13152114
202	0x3dde505e	0.108551726
203	0x3db0aef6	0.08627121
204	0x3e1483f1	0.14503457
205	0xbd28323e	-0.04106354
206	0xbcf278f6	-0.029598694
207	0x3c8e9b67	0.017408086
208	0x3e053f1d	0.13012357
209	0x3d270927	0.040780213
210	0xbd3b8f6e	-0.045791082
211	0x3e08c09e	0.13354728
212	0x3da33172	0.07968415
213	0x3d56ac12	0.052410193
214	0x3d0f2021	0.03494275
215	0xbd8c4886	-0.0684977
216	0x3de283e4	0.110603124
217	0x3dd3250b	0.103098
218	0x3de9d13e	0.11416863
219	0xbd345871	-0.044029657
220	0x3d85b64c	0.06528911
221	0x3e1bbfdb	0.15209906
222	0x3dbebbfc	0.09313199
223	0x3e81b407	0.25332662
224	0x3ccbbad6	0.024869364
225	0xbdf653f1	-0.12027729
226	0xbb9c48fd	-0.004769443
227	0xbd171f71	-0.03689522
228	0x3ddc8163	0.10766866
229	0x3da7a762	0.081862226
230	0x3df62d4e	0.1202036
231	0x3c09e075	0.008415331
232	0x3e560b4a	0.20902744
233	0x3d4c8bb2	0.04993791
234	0xbd856add	-0.06514523
235	0x3d320ffe	0.043472283
236	0xbd9895fc	-0.07450482
237	0x3e22b8c1	0.1589079
238	0xbb82eebd	-0.003995745
239	0x3c1862a5	0.009300862
240	0x3de0da93	0.1097919
241	0xbb8d7305	-0.00431669
242	0xbe09d69c	-0.13460773
243	0xbd2dc887	-0.042427566
244	0x3a7f1c49	0.0009731693
245	0xbe121453	-0.14265566
246	0x3da5877b	0.080824815
247	0x3d64ffe1	0.055908088
248	0xbdb677ec	-0.08909592
249	0x3de1dd14	0.110284954
250	0xbdb7c0b3	-0.08972301
251	0xbb61626a	-0.0034390935
252	0x3d5994c9	0.05312041
253	0xbdf75ef9	-0.120786615
254	0xbd421081	-0.04737902
255	0xbd0dfae0	-0.03466308

sequential/dense_1/MatMul f4 [32, 64]
0	0xbbe00628	-0.0068366714
1	0x3dd1c6f9	0.10243029
2	0x3e55f80a	0.208954
3	0x3dc75c8e	0.0973445
4	0x3e123a4d	0.14280052
5	0xbccd7e16	-0.025084537
6	0xbdba8dbf	-0.09109067
7	0xbe0d6b0f	-0.13810371
8	0x3e6129e5	0.21988638
9	0x3dd901ee	0.10596071
10	0x3d48ba44	0.04900576
11	0xbe212c2e	-0.1573951
12	0x3e8df324	0.27724564
13	0x3d9a9328	0.07547599
14	0xbe34e7f0	-0.17666602
15	0xbe3d9f65	-0.18517835
16	0xbbaef69b	-0.0053394563
17	0x3d8bc3c7	0.06824451
18	0x3e5632ca	0.20917812
19	0xbe31fee7	-0.17382394
20	0x3df66691	0.12031282
21	0x3de67528	0.112528145
22	0x3bd62350	0.0065349713
23	0xbdbf0b26	-0.09328298
24	0xbd76aa85	-0.060221214
25	0xbd566aac	-0.052347824
26	0xbeb3b924	-0.3510219
27	0xbdc9b2e1	-0.098485716
28	0xbe445e23	-0.19176535
29	0xbe87363e	-0.2640857
30	0xbe493a8a	-0.19651237
31	0xbdab6253	-0.08368363
32	0xbe093626	-0.13399562
33	0xbe208a47	-0.15677749
34	0x3e043bea	0.1291348
35	0x3e6dc3e5	0.23219259
36	0x3e4522c8	0.19251549
37	0xbd145739	-0.036215995
38	0x3e0303ea	0.12794462
39	0xbd72e5eb	-0.059301298
40	0x3e1651de	0.14679667
41	0x3b0e8728	0.002174804
42	0x3dcb49ce	0.099261865
43	0xbe226e8f	-0.15862487
44	0xbe5d8d85	-0.21636017
45	0x3e04a276	0.12952599
46	0x3e5ca7a0	0.21548319
47	0x3ec44de8	0.38340688
48	0x3cf93db3	0.030424928
49	0x3de5a465	0.112129964
50	0xbe5a582f	-0.21322702
51	0x3d6e0a15	0.058115084
52	0xbdc91cef	-0.09819972
53	0xbdb56453	-0.08857026
54	0x3e210f96	0.15728602
55	0xbe66ccfe	-0.22539136
56	0x3db19f18	0.08672923
57	0x3cdb6102	0.026779655
58	0x3e835f71	0.25658754
59	0x3e22ff8d	0.15917797
60	0x3dcb20b8	0.0991835
61	0xbd28b211	-0.041185442
62	0x3d160e63	0.036634814
63	0xbdde26a9	-0.108472176
64	0x3e875de9	0.26438835
65	0x3e44a189	0.19202246
66	0x3e72bfa1	0.23705913
67	0x3db0904b	0.08621272
68	0x3d3d454c	0.046208665
69	0x3dd505fa	0.104015306
70	0xbe1259ba	-0.1429204
71	0x3dc67da1	0.096919306
72	0xbe07ad5a	-0.13249722
73	0xbd79c765	-0.060981173
74	0x3ca04a95	0.019566813
75	0x3e90e901	0.28302768
76	0xbe867469	-0.2626069
77	0x3e185d45	0.1487933
78	0xbe66913d	-0.22516342
79	0xbe015d11	-0.12633158
80	0xbe0e491d	-0.13895078
81	0x3c1705db	0.009217705
82	0x3c9013b5	0.017587522
83	0xbe131f52	-0.14367417
84	0xbe7a7d0b	-0.24461763
85	0x3e897913	0.26850185
86	0x3d8b2411	0.067939885
87	0x3e430659	0.1904539
88	0x3e8ed2a3	0.27895078
89	0xbe0ad40c	-0.13557452
90	0x3e646024	0.223023
91	0x3e2752c7	0.16340171
92	0xbe122bf5	-0.14274581
93	0xbc023291	-0.007946626
94	0x3df29470	0.118447185
95	0x3de9ea0b	0.11421593
96	0x3e79de93	0.24401312
97	0xbde55510	-0.11197865
98	0x3e216e0c	0.15764636
99	0x3da5f578	0.0810346
100	0x3e119a7d	0.14219089
101	0xbe98f703	-0.29875955
102	0xbe175b82	-0.14781001
103	0xbd215666	-0.039389037
104	0x3e6bc7c2	0.2302542
105	0xbe22acbf	-0.1588621
106	0x3dd9a9c1	0.10628081
107	0xbd74d117	-0.059769716
108	0x3dff14e8	0.124551594
109	0xbdeeb18c	-0.11654958
110	0x3e5a964b	0.21346395
111	0x3c0265bd	0.007958827
112	0x3d9d24f8	0.07673067
113	0x3e16c91e	0.14725158
114	0x3e062b28	0.131024
115	0xbd72fe81	-0.059324745
116	0xbe24c3ba	-0.16090289
117	0x3cf42d03	0.02980662
118	0x3d8500ef	0.06494319
119	0xbe4303be	-0.19044396
120	0xbd75e2f3	-0.06003089
121	0xbe0533bf	-0.13008021
122	0x3b44c857	0.0030026638
123	0x3e3d15cb	0.18465345
124	0xbd4cb586	-0.0499778
125	0x3db0fb79	0.086417146
126	0xbd30a93f	-0.043130156
127	0x3e46f19f	0.19428109
128	0x3e235f3d	0.159543
129	0xbe2ebb66	-0.17063674
130	0xbe66e85b	-0.22549574
131	0x3e058701	0.13039781
132	0xbe103cc1	-0.14085676
133	0x3aa018d6	0.0012214433
134	0x3e0b6794	0.1361373
135	0x3e343d4f	0.17601512
136	0xbe2f233f	-0.17103289
137	0xbe6c3878	-0.23068416
138	0x3e18a317	0.14905964
139	0x3e42cc90	0.19023347
140	0x3e29d36f	0.16584562
141	0x3dc6d2fd	0.097082116
142	0xbe2544d8	-0.16139543
143	0xbe51123e	-0.20417115
144	0x3d949c95	0.07256428
145	0x3d96364e	0.073345765
146	0x3e44a6dc	0.19204277
147	0x3e4676d9	0.19381274
148	0xbdb646f6	-0.089002535
149	0x3e89afe6	0.26892012
150	0xbe5db116	-0.21649584
151	0x3dc61c5a	0.096733764
152	0x3e92848b	0.28616747
153	0xbd2ab7f2	-0.04167933
154	0xbe85a301	-0.26100925
155	0x3db127cc	0.08650169
156	0x3df58e42	0.11990024
157	0xbe1789c2	-0.14798644
158	0x3dc8c1a5	0.0980256
159	0x3dcfeefb	0.10153004
160	0x3d1c850f	0.038212832
161	0xbe02b16c	-0.12762994
162	0x3e627fc7	0.22119056
163	0x3d868eec	0.06570229
164	0x3da59dd4	0.08086744
165	0xbe34e6f3	-0.17666225
166	0x3e90cd32	0.28281552
167	0x3e2ee1ec	0.1707837
168	0xbd11ea2b	-0.03562371
169	0x3e204f28	0.15655196
170	0xbcc9fcc8	-0.024656668
171	0xbcc33736	-0.023830038
172	0xbdf014f7	-0.11722749
173	0xbd17bd42	-0.037045725
174	0xbe450d65	-0.19243391
175	0xbe61528e	-0.22004148
176	0x3d19dd66	0.037564658
177	0xbe8160e4	-0.25269234
178	0xbd5e69a0	-0.05429995
179	0xbd857f6c	-0.065184444
180	0x3d96628a	0.073430136
181	0x3e7bb88b	0.24582116
182	0xbd8f714c	-0.070040315
183	0x3d7fe560	0.06247461
184	0xbcbc9d9a	-0.023024369
185	0xbdf2571d	-0.11833022
186	0x3d67bc43	0.056576025
187	0xbe3abd05	-0.18236168
188	0x3d6c27c1	0.0576551
189	0x3e61f26b	0.22065131
190	0xbd8c5d5a	-0.06853743
191	0xbe8cf5b3	-0.27531204
192	0x3dc8189b	0.09770318
193	0xbdd18a08	-0.102314055
194	0x3cb54c0b	0.022130987
195	0x3d1197d0	0.03554517
196	0x3e175c3c	0.14781278
197	0x3e328f18	0.17437398
198	0x3e970f3d	0.29503813
199	0xbd8af2aa	-0.06784566
200	0x3d558800	0.052131653
201	0xbe6a996d	-0.2291009
202	0x3dae7c88	0.08519846
203	0xbe8dd926	-0.27704734
204	0x3e050566	0.1299034
205	0x3da04129	0.07824928
206	0x3ccb0340	0.024781823
207	0xbe2f8cc8	-0.17143548
208	0xbdede638	-0.11616176
209	0xbce717c0	-0.028209567
210	0xbdda4a28	-0.106586754
211	0xbe2d706a	-0.16937414
212	0xbe4d4bc4	-0.20048434
213	0xbe31bb8a	-0.17356697
214	0x3d74724d	0.05967932
215	0x3e65aead	0.22429915
216	0xbbd67342	-0.0065445015
217	0x3dd1b5a0	0.1023972
218	0xbdfa8648	-0.12232643
219	0xbeb1f83e	-0.34759706
220	0xbe340ecc	-0.1758377
221	0x3dcba4dc	0.09943554
222	0x3de44d5f	0.1114757
223	0x3df28490	0.118416905
224	0x3e152680	0.14565468
225	0x3e4fefe4	0.20306355
226	0x3e734000	0.23754883
227	0x3e279246	0.16364393
228	0xbd4399c2	-0.047754057
229	0x3e00c490	0.12574983
230	0xbbca72db	-0.0061782426
231	0x3e172794	0.14761192
232	0xbc540d80	-0.012942672
233	0xbe336801	-0.17520143
234	0xbe380a09	-0.17972578
235	0x3d983868	0.07432634
236	0x3dfba4c0	0.12287283
237	0xbce8a53b	-0.0283991
238	0xbe06cf4f	-0.1316502
239	0xbe6a3dc1	-0.2287512
240	0x3c697672	0.014249431
241	0xbe4955bc	-0.19661611
242	0x3e63cbb0	0.2224567
243	0x3d941fbc	0.07232615
244	0xbe0ba3a0	-0.13636637
245	0xbe255c14	-0.16148406
246	0xbdd1c3a8	-0.102423966
247	0xbe1e3de0	-0.15453291
248	0xbd9ab240	-0.0755353
249	0xbe8426b1	-0.2581077
250	0x3ee1fec0	0.4413967
251	0xbe0b66ae	-0.13613388
252	0x3e6df348	0.23237336
253	0xbe418321	-0.18897678
254	0xbe2227ae	-0.15835449
255	0xbbfe6b22	-0.007764236
